notebooks/model.pt (torch, 83645 bytes, 6 tensors)

lstm.weight_ih_l0 f4 [256, 7]
0	0xbf0ac9d5	-0.5421422
1	0xbe422877	-0.18960749
2	0xbcbd4ccb	-0.023107907
3	0x3ea5462a	0.32280093
4	0xbcc5a7bb	-0.024127832
5	0x3d538ea5	0.05164971
6	0xbd561524	-0.052266255
7	0x3f5987bc	0.8497274
8	0xbdc9b052	-0.098480836
9	0xbed55746	-0.41668147
10	0xbeaae573	-0.3337818
11	0xbd8efd78	-0.06981939
12	0x3de3e1bf	0.11127042
13	0x3ce95682	0.028483633
14	0x3dc43d0f	0.095819585
15	0x3e90d78f	0.28289458
16	0xbe515ae8	-0.20444834
17	0x3ca29201	0.01984501
18	0xbdcf1898	-0.10112113
19	0x3d1900e7	0.037354376
20	0xbdd1728b	-0.102269255
21	0xbe4f41ce	-0.20239946
22	0xbef1103a	-0.47082692
23	0x3ed05abf	0.40694234
24	0x3cd624e2	0.026140634
25	0xbdd8f007	-0.105926566
26	0xbe530bb9	-0.2060994
27	0xbd470488	-0.048588306
28	0xbf712a8a	-0.94205534
29	0x3e123455	0.14277776
30	0xbee900dd	-0.4550847
31	0xbf137024	-0.5759299
32	0xbee30dc7	-0.4434645
33	0xbeb3e47d	-0.3513526
34	0xbd9df407	-0.0771256
35	0x3e3cf2e6	0.18452033
36	0xbefe9d7e	-0.49729532
37	0x3dd013c4	0.1016002
38	0xbdb44c79	-0.088036485
39	0xbd49043e	-0.04907631
40	0x3bcbaf86	0.0062159924
41	0x3e9467ea	0.2898553
42	0xbe0aa700	-0.13540268
43	0x3eab8358	0.33498645
44	0xbf35d9a9	-0.7103525
45	0xbee7b368	-0.45254064
46	0xbdbd7526	-0.0925086
47	0x3dfa6969	0.12227137
48	0x3ea7fcb1	0.32809976
49	0x3f8cb6b0	1.0993252
50	0x3e9e8f33	0.30968627
51	0xbf8e1e12	-1.1102927
52	0x3d27b5a5	0.040944714
53	0x3d7fede8	0.062482744
54	0xbd877291	-0.06613649
55	0xbc11bc0b	-0.008894931
56	0xbe482821	-0.19546558
57	0x3e94e04c	0.29077375
58	0x3dcb4208	0.09924704
59	0xbf13922c	-0.57644916
60	0xbdfd7f64	-0.123778135
61	0xbbd74e0a	-0.0065705823
62	0xbd8eb9aa	-0.06969006
63	0xc025c39c	-2.590064
64	0x3e97e4fc	0.2966689
65	0xbf116ba3	-0.56804866
66	0x3c498180	0.012298942
67	0xbea9d4a7	-0.33170053
68	0xbc0899c1	-0.008337439
69	0xbd980625	-0.07423047
70	0x3f0a4058	0.5400443
71	0xbf18cfd0	-0.59692097
72	0xbdd783ef	-0.10523211
73	0xbf5a64b5	-0.85309917
74	0xbe8a10df	-0.26965997
75	0xbda0db35	-0.078543104
76	0x3d6e86e6	0.058234118
77	0x3e835aa8	0.25655103
78	0x3d858ac2	0.065206066
79	0xba6fbd5a	-0.0009145342
80	0xbe8a99bf	-0.27070424
81	0xbe2ae46b	-0.16688697
82	0x3e335cce	0.17515871
83	0x3cba1059	0.022712873
84	0xbf066206	-0.5249332
85	0xbeae04e2	-0.339881
86	0x3e1990ea	0.14996687
87	0xbd1fc0c4	-0.039002195
88	0xbe97648f	-0.29568908
89	0xbe2cbbdd	-0.16868539
90	0xbe4b2be1	-0.19840957
91	0xbe15a6d8	-0.14614427
92	0xbe969611	-0.29411367
93	0xbe3ed58f	-0.18636154
94	0xbe79fef3	-0.24413662
95	0xbe591e73	-0.21203022
96	0xbe4d196c	-0.20029229
97	0x3e57733a	0.21040049
98	0xbf1583a5	-0.58404
99	0x3e0a5416	0.13508639
100	0x3d74a5b0	0.059728324
101	0xbda40a4a	-0.08009775
102	0xbe4f0272	-0.20215777
103	0xbccd9f2c	-0.025100313
104	0xbaf909f6	-0.0019000161
105	0x3e30f8f1	0.17282464
106	0x3f1e88ab	0.6192729
107	0xbdfe579f	-0.12419056
108	0xbe6b1970	-0.22958922
109	0xbe2d15a3	-0.16902785
110	0xbdaaf567	-0.08347588
111	0xbdae611a	-0.085146144
112	0x3f6b9b71	0.9203406
113	0x3e8f7d2e	0.28025192
114	0xbec8ecac	-0.39243066
115	0xbebfde0d	-0.374741
116	0xbd58b9e4	-0.052911654
117	0xbe0b2a90	-0.13590455
118	0x3dba227c	0.090886086
119	0xbe8583cb	-0.26077113
120	0x3e65e738	0.22451484
121	0xbf852963	-1.0403255
122	0xbd85da6f	-0.065358035
123	0xbeb0c8c8	-0.34528184
124	0x3d633c90	0.05547768
125	0xbabcf3fe	-0.0014415977
126	0xbf1431a1	-0.5788823
127	0xbd9c578c	-0.07633886
128	0xbde72cb0	-0.1128782
129	0xbf15fc47	-0.5858807
130	0xbf0e0908	-0.5548253
131	0x3e5dbf28	0.21654952
132	0xbda0fb2a	-0.07860406
133	0x3dba01b3	0.09082355
134	0x3dc3d48c	0.095620245
135	0x3d94a075	0.07257167
136	0xbe792d0a	-0.24333587
137	0xbefaa2d6	-0.4895236
138	0xbe0cbb75	-0.13743384
139	0x3d1efdcc	0.03881626
140	0x3e4bd421	0.1990514
141	0xbe5a09d8	-0.21292818
142	0xbe894745	-0.26812187
143	0x3e629e01	0.22130586
144	0xbd382e42	-0.04496599
145	0xbe60afd9	-0.2194208
146	0x3df3967d	0.11893938
147	0x3f0aa694	0.5416043
148	0x3e9ef7d5	0.31048456
149	0xbf6b041b	-0.9180314
150	0xbe985ed8	-0.2975986
151	0xbe8a70fa	-0.2703932
152	0xbd92c518	-0.07166499
153	0xbe088b87	-0.13334475
154	0x3caab090	0.020836145
155	0x3c25e222	0.010124715
156	0x3eb9b420	0.36270237
157	0xbe877ace	-0.2646088
158	0x3d0ad3f8	0.033893555
159	0xbe01e755	-0.12685902
160	0xbf0368e5	-0.5133193
161	0x3f136bcd	0.57586366
162	0xbd577408	-0.05260089
163	0xbea3fe0f	-0.3202977
164	0xbedec2ab	-0.43507895
165	0xbe8a5fe6	-0.2702629
166	0x3e2440e5	0.1604038
167	0x3c8355b8	0.016032085
168	0xbea7d059	-0.32776144
169	0xbf08e338	-0.5347171
170	0x3d6bd349	0.057574544
171	0xbe659eeb	-0.22423904
172	0xbdc13e54	-0.09435716
173	0xbc4b508b	-0.01240934
174	0x3df3bb53	0.11900964
175	0xbe9ebc9f	-0.3100328
176	0xbe48e333	-0.1961792
177	0xbef7b57b	-0.48380646
178	0xbe32e016	-0.17468295
179	0x3e50f5fe	0.20406339
180	0x3e490a44	0.19632822
181	0x3d93095e	0.07179521
182	0x3e492b42	0.19645408
183	0x3dbdf007	0.09274297
184	0xbf104a67	-0.5636353
185	0x3f0bc16f	0.5459203
186	0xbd11d6ab	-0.035605114
187	0x3e8a0b0e	0.2696156
188	0x3d3f6b69	0.046733294
189	0x3e88c3ed	0.2671198
190	0x3d705527	0.058674958
191	0xbe3a1ca2	-0.18174985
192	0xbd49ba0e	-0.0492497
193	0xbeec8ecc	-0.46202695
194	0xbd2d6027	-0.042328026
195	0x3de98209	0.11401755
196	0xbf0e316c	-0.5554416
197	0xbe568447	-0.20948897
198	0xbf102126	-0.5630058
199	0xbeb55d7c	-0.35422885
200	0x3e30befe	0.17260358
201	0xbd8f339f	-0.06992268
202	0x3d70d1b4	0.05879374
203	0xbe2992ef	-0.16559957
204	0xbeab7099	-0.33484343
205	0x3e45d222	0.1931844
206	0xbef023ca	-0.46902305
207	0xbe9766e8	-0.295707
208	0x3bc9b9c1	0.006156177
209	0xbd831327	-0.064001374
210	0xbef4a3f5	-0.4778134
211	0x3e8acc56	0.2710902
212	0xbf40d032	-0.7531768
213	0x3e957d71	0.29197267
214	0x3dfdbfd6	0.123901054
215	0xbc6555c1	-0.013997496
216	0x3ccd482c	0.025058828
217	0x3d3df3e3	0.046375167
218	0xbe433402	-0.19062808
219	0xbf4ace2d	-0.7922085
220	0x3e09fe18	0.13475835
221	0x3e6acd6a	0.22929922
222	0xbd94bcbe	-0.07262562
223	0x3e1b603e	0.15173432
224	0x3e65e531	0.22450711
225	0x3e5d0596	0.21584162
226	0xbf01f17e	-0.5075911
227	0xbf1a982a	-0.60388434
228	0x3e915e98	0.28392482
229	0xbdd854a5	-0.1056302
230	0x3c103be3	0.008803341
231	0xbeddc990	-0.43317842
232	0xbf0b53b6	-0.5442461
233	0xbec9e141	-0.39429668
234	0x3dcd9dda	0.100398734
235	0xbe2d4307	-0.169201
236	0x3e10f5e6	0.14156303
237	0xbd9144eb	-0.07093223
238	0xbe968889	-0.29401043
239	0x3e42e4b7	0.1903256
240	0xbf15f554	-0.58577466
241	0x3ebd9221	0.3702555
242	0xbe8cf4f9	-0.2753065
243	0x3db8625a	0.09003134
244	0xbd198d3b	-0.037488203
245	0xbcc22119	-0.023697423
246	0x3edcb1b9	0.43104342
247	0xbe9e0990	-0.3086667
248	0xbea88e82	-0.32921225
249	0xbeba6701	-0.3640671
250	0xbd766dc2	-0.060163267
251	0x3d12ea96	0.03586825
252	0x3e36746f	0.17817853
253	0xbbb1a297	-0.0054209935
254	0xbdd6a819	-0.10481281
255	0x3e8c9dc6	0.27464122

lstm.weight_hh_l0 f4 [256, 64]
0	0xbd86379e	-0.06553577
1	0x3deae41f	0.11469292
2	0x3e0c0b3f	0.13676165
3	0xbee30685	-0.44340912
4	0xbe05933d	-0.13044448
5	0xbeead95a	-0.4586895
6	0xbe91d2f2	-0.2848125
7	0x3c88b973	0.016689992
8	0x3f2b7776	0.6697916
9	0x3e835544	0.2565099
10	0xbea64cf4	-0.32480586
11	0x3e90d1cd	0.28285065
12	0xbec23965	-0.37934414
13	0x3f332645	0.6998027
14	0xbf265780	-0.64977264
15	0xbed54367	-0.41652986
16	0xbf0cb8bd	-0.5496939
17	0xbd7bf7fa	-0.061515786
18	0xbdc6c86d	-0.09706197
19	0x3f152f9d	0.5827578
20	0xbd4d829a	-0.05017338
21	0xbef39d8e	-0.47581142
22	0xbbd0c797	-0.006371449
23	0x3d2d8dbc	0.042371497
24	0x3cddcf11	0.027076276
25	0x3eef2a09	0.46711758
26	0xbec35e9f	-0.38158128
27	0x3e565644	0.20931345
28	0xbd668825	-0.05628218
29	0xbd67f040	-0.056625605
30	0x3e9ccb0b	0.3062366
31	0x3eba816b	0.36426863
32	0x3bd32ecc	0.0064447876
33	0xbe2b2dd1	-0.16716696
34	0x3f56fdf6	0.83981264
35	0x3f500299	0.81253964
36	0x3f4cf8c4	0.80067086
37	0xbe9e2b6c	-0.30892503
38	0x3eff79de	0.49897665
39	0x3ed329a0	0.41242695
40	0xbe381543	-0.1797686
41	0x3ec5bc02	0.3862
42	0x3f1d632d	0.61479455
43	0xbd6a9e3a	-0.057279803
44	0x3f1961c7	0.5991482
45	0x3ec5bfb8	0.38622832
46	0xbeb67ea1	-0.35643485
47	0xbd5e4a19	-0.054269884
48	0x3dd54fe2	0.10415627
49	0x3d719d60	0.058987975
50	0x3d8729d9	0.06599779
51	0x3e18a3e3	0.14906268
52	0x3f4cd790	0.8001642
53	0xbeeaf2e1	-0.45888427
54	0x3e86626d	0.26246968
55	0x3eaa0daa	0.3321355
56	0x3e5e77d3	0.21725397
57	0x3eccdeb4	0.4001366
58	0xbe050f9e	-0.12994239
59	0xbf3023d3	-0.68804663
60	0x3f1519a9	0.5824228
61	0x3e285517	0.16438709
62	0x3c3fcc8f	0.011706485
63	0xbd304b67	-0.04304066
64	0x3ec5a473	0.38602027
65	0xbed2963c	-0.41130245
66	0x3e8268cb	0.25470576
67	0x3d7bab8c	0.061442897
68	0xbea465e4	-0.32108986
69	0x3c395cc9	0.011313626
70	0x3c3059cd	0.010763598
71	0xbe890c6d	-0.26767293
72	0x3e78be03	0.24291234
73	0xbb57b351	-0.0032913277
74	0xbeba3e28	-0.36375546
75	0xbdb24a08	-0.087055266
76	0xbef4fddf	-0.47849938
77	0x3ccdd6ed	0.025126899
78	0xbc9c23f0	-0.019060105
79	0xbe118389	-0.14210333
80	0xbdd847f9	-0.10560603
81	0x3f213ba7	0.6298165
82	0x3d08a392	0.033359118
83	0x3e9e8ab9	0.30965212
84	0xbf4a810f	-0.7910318
85	0x3e0e6442	0.13905433
86	0xbbaf1f32	-0.005344295
87	0xbe2b4e3c	-0.16729063
88	0x3f00b6e1	0.5027905
89	0x3e0c5a19	0.13706245
90	0xbd6992db	-0.057024818
91	0x3e55adcc	0.2086708
92	0xbe55c017	-0.20874058
93	0xbeb13abb	-0.3461512
94	0x3e388a74	0.18021566
95	0xbc21598b	-0.009848009
96	0x3da10071	0.07861412
97	0xbf28ad1f	-0.6588916
98	0xbcfe7092	-0.031059537
99	0x3e34f173	0.1767023
100	0x3f2a7c2a	0.6659571
101	0x3efa5ac2	0.48897368
102	0x3e0ae9e6	0.13565788
103	0x3f1f9766	0.6234039
104	0x3cf824ff	0.030291079
105	0x3deeeb17	0.116659336
106	0xbeb7d26e	-0.35902733
107	0x3d1f0367	0.038821604
108	0xbe9f85a0	-0.31156635
109	0x3e7fcc9f	0.249804
110	0xbe95c6b0	-0.2925315
111	0xbe6db7ce	-0.23214647
112	0x3ebf4791	0.37359288
113	0x3da9e395	0.08295361
114	0xbd8cdc13	-0.06877913
115	0x3e84b33e	0.25918
116	0xbe89b492	-0.26895577
117	0xbdd3bfec	-0.103393406
118	0xbe2dfaa7	-0.16990148
119	0xbdb972ed	-0.090551235
120	0xbe59bad7	-0.2126268
121	0x3d93df99	0.07220382
122	0x3d4de0fd	0.050263394
123	0xbe482b7d	-0.1954784
124	0xbe0a5c5b	-0.13511793
125	0x3cfe1f7c	0.031020872
126	0xbb8487d7	-0.0040445137
127	0x3e8e849e	0.27835554
128	0x3f9aca28	1.2092943
129	0xbf42b5b0	-0.76058483
130	0xbece082b	-0.40240607
131	0x3d8852c4	0.06656411
132	0xbf1851d5	-0.59499866
133	0xbefabde3	-0.48972997
134	0xbea03eb1	-0.3129783
135	0xbf779079	-0.9670482
136	0xbf1c74a0	-0.61115456
137	0xbf16d6c5	-0.5892146
138	0xbf12b959	-0.5731407
139	0xbe3f1138	-0.18658912
140	0xbe8a56ff	-0.27019498
141	0x3ebc6400	0.36795044
142	0xbe09aaab	-0.13444011
143	0x3db3f4f7	0.08786958
144	0x3f3f1d55	0.7465413
145	0x3f3c028d	0.7344139
146	0x3ea8dd28	0.3298123
147	0xbf4cba8f	-0.79972166
148	0x3e9f3926	0.31098288
149	0xbe93799c	-0.28803718
150	0xbd395dd7	-0.04525551
151	0x3d1b5752	0.037925072
152	0x3e01a5e3	0.12660937
153	0x3e48a334	0.19593507
154	0xbed6fd10	-0.41989946
155	0x3be38a23	0.0069439574
156	0xbf10eaa4	-0.56608033
157	0xbdda570a	-0.10661133
158	0xbeb2998b	-0.3488277
159	0x3ecbe717	0.39824745
160	0x3eeff91c	0.46869743
161	0xbe355050	-0.17706418
162	0xbf281217	-0.656526
163	0xbf2540c5	-0.64551955
164	0x3efc8810	0.49322557
165	0xbed37d61	-0.41306594
166	0xbd191fe5	-0.037383933
167	0x3f3fe052	0.7495166
168	0xbf2eb757	-0.68248504
169	0x3eaef69f	0.34172532
170	0x3f4397a7	0.7640328
171	0xbe80a6fa	-0.25127393
172	0x3e453827	0.19259702
173	0xbe9835f7	-0.29728672
174	0xbea5acfe	-0.32358545
175	0xbf83b034	-1.0288148
176	0x3e57ccb3	0.2107418
177	0xbecaf678	-0.39641166
178	0x3ef28fd4	0.47375357
179	0x3f03be33	0.51462096
180	0x3eba120d	0.36341897
181	0xbebe0a2d	-0.37117139
182	0x3db1ec42	0.08687641
183	0x3e674599	0.22585143
184	0x3d0d67ea	0.03452293
185	0x3f3b8bcd	0.73260194
186	0xbe45957e	-0.19295308
187	0xbe8ad53b	-0.27115807
188	0xbeb5c1ff	-0.3549957
189	0x3eb98664	0.36235344
190	0x3ea410ad	0.32043973
191	0xbe3fc6a3	-0.18728118
192	0x3e054c2b	0.13017337
193	0x3cbd2ed1	0.023093613
194	0x3c11601b	0.008873011
195	0x3d965547	0.07340484
196	0x3c31de3f	0.01085621
197	0x3eacbfe0	0.3374014
198	0xbc83d07a	-0.01609062
199	0x3d6757e1	0.056480292
200	0x3ed04660	0.40678692
201	0xbece3939	-0.40278032
202	0x3e9893eb	0.29800352
203	0xbc4f0136	-0.012634566
204	0xbde3c2ce	-0.111211404
205	0xbe8975e7	-0.26847765
206	0x3f1c83e0	0.61138725
207	0xbd088dae	-0.03333824
208	0xbe77e900	-0.24209976
209	0x3e260350	0.16212201
210	0x3dfc9cbb	0.123345815
211	0x3d35319c	0.044236764
212	0xbec7e445	-0.39041343
213	0xbe8de8f7	-0.277168
214	0xbe96cc2f	-0.29452655
215	0x3e6d4b8c	0.2317335
216	0xbe73c0d1	-0.23804022
217	0xbdab222f	-0.083561294
218	0xbe089c25	-0.13340814
219	0x3e835422	0.25650126
220	0x3e411cef	0.18858694
221	0x3eaf0a5c	0.3418759
222	0xbefc2784	-0.49248898
223	0xbe552d7d	-0.20818134
224	0xbcdf38df	-0.027248798
225	0x3d016df3	0.031598996
226	0x3eaf6388	0.34255624
227	0x3e3d6b10	0.18497872
228	0xbeacb358	-0.33730578
229	0x3e2c2e64	0.16814572
230	0xbde49534	-0.11161271
231	0xbedc22e0	-0.42995358
232	0x3eb55063	0.35412893
233	0x3cc86606	0.024462711
234	0xbd5789f0	-0.05262178
235	0xbc68e3cb	-0.014214466
236	0x3e3ca6bc	0.18422979
237	0xb9a381aa	-0.0003118639
238	0x3dd16e50	0.102261186
239	0x3e0be954	0.13663226
240	0x3ab03e8b	0.0013446374
241	0x3e9ae12d	0.3024992
242	0xbe9422bb	-0.28932747
243	0xbd4c78b1	-0.049919788
244	0x3c28af83	0.0102957515
245	0xbeb07f31	-0.3447204
246	0xbe97f806	-0.29681414
247	0x3e8c7cfa	0.274391
248	0xbd3af02b	-0.0456392
249	0xbe79d278	-0.24396694
250	0xbd889ebc	-0.06670901
251	0x3e395c5e	0.18101642
252	0x3e53a362	0.20667794
253	0xbe127a07	-0.14304362
254	0xbd084891	-0.03327233
255	0xbe8d6962	-0.27619463

lstm.bias_ih_l0 f4 [256]
0	0xbd8afe30	-0.06786764
1	0xbdc56e4b	-0.09640177
2	0xbe676745	-0.22597988
3	0xbd448645	-0.047979612
4	0xbe9e7e8c	-0.30955923
5	0x3ddb7d23	0.10717227
6	0xbd04862a	-0.03235451
7	0xbdb690f2	-0.08914365
8	0xbe127a2d	-0.14304419
9	0xbe9658d9	-0.2936466
10	0xbe9c899f	-0.30573747
11	0x3dee433a	0.11633916
12	0xbd83cb5b	-0.06435271
13	0xbb748e59	-0.003731629
14	0xbdcdfb52	-0.10057701
15	0xbd6c393e	-0.057671778
16	0xbdf78720	-0.1208632
17	0xbe64b49f	-0.22334526
18	0xbe80cbc9	-0.25155476
19	0xbccd319a	-0.025048066
20	0xbdde57de	-0.10856603
21	0xbdbbf93b	-0.09178396
22	0xbe6590b4	-0.22418481
23	0xbdefefe3	-0.11715677
24	0xbe71c8a1	-0.2361169
25	0xbc418e33	-0.011813688
26	0x3da652fa	0.08121295
27	0xbdcef805	-0.101059
28	0xbe2bc377	-0.16773783
29	0xbec759b6	-0.38935632
30	0xbe16dfd7	-0.14733826
31	0x3d557054	0.052109078
32	0xbe8af098	-0.27136683
33	0xbdb491df	-0.08816885
34	0xbd97ae95	-0.07406346
35	0xbe61f44c	-0.22065848
36	0xbdc9bf88	-0.09850985
37	0x3c13bfd2	0.0090179015
38	0xbdfa98a8	-0.12236148
39	0xbea73717	-0.32659218
40	0xbe38d8e6	-0.1805149
41	0xbea42abe	-0.3206386
42	0xbe87c905	-0.26520553
43	0xbe7821ee	-0.24231693
44	0xbe3d71d9	-0.1850046
45	0xbe288d90	-0.16460252
46	0xbdc78ca0	-0.09743619
47	0xbe2c9770	-0.16854644
48	0xbe16c9ec	-0.14725465
49	0xbe069ee9	-0.13146557
50	0xbdf2b17a	-0.11850257
51	0xbe013abb	-0.1262006
52	0x3d95c59c	0.073130816
53	0xbe59d6d8	-0.21273363
54	0xbe8424d8	-0.2580936
55	0x3c2d9993	0.010595697
56	0xbea6bdce	-0.32566684
57	0x3d5e20e0	0.05423057
58	0xbdad156e	-0.08451353
59	0xbe46fa79	-0.19431485
60	0xbe290f21	-0.16509677
61	0xbcd66eae	-0.026175823
62	0xbdb419f1	-0.087940104
63	0x3cdb696e	0.026783671
64	0xbd1cd5e3	-0.038289916
65	0xbe2f3af2	-0.1711233
66	0xbb386dde	-0.0028141658
67	0x3def2da4	0.11678627
68	0xbe7d5858	-0.24740732
69	0x3e320939	0.1738633
70	0xbe040462	-0.12892297
71	0xbe8fd0a0	-0.28088856
72	0xbc8b3fb1	-0.016998144
73	0xbe38d772	-0.18050936
74	0xbe26616b	-0.162481
75	0x3c432881	0.011911512
76	0xbe1404af	-0.14454912
77	0x3d7b70e1	0.061386947
78	0xbecdba99	-0.40181425
79	0x3d3427df	0.043983337
80	0xbe1aac2d	-0.15104742
81	0xbed0477e	-0.40679544
82	0xbe89d740	-0.26922035
83	0x3e50c446	0.20387372
84	0xbe765bd5	-0.24058469
85	0xbc1544bc	-0.009110626
86	0xbe95d61c	-0.29264915
87	0xbe20b16d	-0.15692683
88	0xbe40b3d4	-0.18818599
89	0xbe6503c2	-0.22364715
90	0x3e87487d	0.26422492
91	0xbe06326f	-0.13105176
92	0xbe8970cd	-0.26843873
93	0xbe16f2f7	-0.14741121
94	0xbe8f67a0	-0.28008747
95	0x3c00973a	0.007848555
96	0xbe0a7347	-0.13520537
97	0xbdb2f592	-0.08738245
98	0xbe91a3ab	-0.2844518
99	0xbd865f5f	-0.06561159
100	0x3a731dd7	0.0009274161
101	0xbcd26d6d	-0.025686944
102	0xbe7fd0f6	-0.24982056
103	0xbec89da5	-0.39182773
104	0xbd909e3d	-0.070614316
105	0xbe87fb25	-0.26558796
106	0xbe424efa	-0.1897544
107	0xbd17ca24	-0.03705801
108	0xbca01f20	-0.019546092
109	0x3d7d323c	0.061815485
110	0xbd14bbfd	-0.036312092
111	0xbeb27da8	-0.34861493
112	0xbe8f3b95	-0.27975145
113	0xbeca3540	-0.39493752
114	0x3d1a36d7	0.037649956
115	0xbe2ecf5d	-0.1707129
116	0x3dbf2a27	0.09334212
117	0xbdf6fb20	-0.12059617
118	0xbe095182	-0.13409999
119	0x3d79c628	0.060979992
120	0xbd699202	-0.05702401
121	0x3e0d794f	0.13815807
122	0xbdc1d837	-0.09465068
123	0xbe75784a	-0.23971668
124	0xbeb76026	-0.35815543
125	0xbda761df	-0.08172964
126	0xbe8896b0	-0.26677465
127	0xbd67689c	-0.056496248
128	0xbd8b51b1	-0.06802691
129	0xbca49740	-0.020091653
130	0x3aa56f96	0.0012621756
131	0xbd0e5dcb	-0.034757417
132	0x3e228f74	0.15875036
133	0x3e451dc4	0.19249636
134	0x3ca94d8e	0.020666864
135	0x3da98212	0.08276762
136	0x3e4c47a9	0.19949211
137	0x3c805d11	0.015669378
138	0x3c985439	0.018594848
139	0x3e566b03	0.20939259
140	0x3dd65509	0.10465438
141	0xbd8eb157	-0.06967419
142	0xbd64a29d	-0.055819143
143	0xbd50c857	-0.05097231
144	0xbcdd7f73	-0.027038312
145	0x3dc94a85	0.098286666
146	0xbe014d32	-0.12627104
147	0x3da9f0c4	0.082978755
148	0xbd5f5945	-0.054528493
149	0x3e3ecb25	0.18632181
150	0xbda5bba4	-0.0809243
151	0xbd80d291	-0.06290162
152	0xbd3f3b85	-0.04668762
153	0x3d0de5b7	0.0346429
154	0xbdd5659c	-0.10419771
155	0xbe017a27	-0.12644254
156	0x3c99caff	0.018773554
157	0xbdb229ec	-0.08699402
158	0xbd848d0a	-0.064722136
159	0xbe1130da	-0.14178792
160	0xbd525f91	-0.05136067
161	0x3e54a8e6	0.20767555
162	0x3cacb01b	0.021080067
163	0xbde81ce8	-0.113336384
164	0xbdd6e439	-0.10492749
165	0x3e370fef	0.17877172
166	0xbe17ebf6	-0.14836106
167	0xbd4181f8	-0.04724309
168	0x3df5a371	0.119940646
169	0xbd1c4936	-0.038155757
170	0xbe471e76	-0.19445214
171	0xbdf05234	-0.11734429
172	0x3e260891	0.16214205
173	0x3cce911f	0.025215684
174	0x3e3781a2	0.17920545
175	0x3d45a6e6	0.04825487
176	0xbd8876d5	-0.066632904
177	0xbdc5db2c	-0.09660944
178	0xbe32edc0	-0.17473507
179	0x3c11af34	0.008891869
180	0xbe341bbf	-0.1758871
181	0xbd0bb7c1	-0.03411079
182	0xbc251419	-0.010075592
183	0xbdbecdad	-0.09316573
184	0x3b22b837	0.002482904
185	0xbe3e5099	-0.18585433
186	0x3e2e406a	0.1701676
187	0x3e0524d4	0.1300233
188	0xbc261dcb	-0.010138939
189	0x3c98116a	0.018562991
190	0x3c65c952	0.014025049
191	0x3dc6ce37	0.09707301
192	0xbdcf196b	-0.1011227
193	0xbec07fa3	-0.3759738
194	0xbe8f9331	-0.28041986
195	0x3d984d13	0.07436576
196	0xbe117211	-0.14203669
197	0x3e10df45	0.1414767
198	0xbe0b7222	-0.13617757
199	0xbed323ce	-0.41238254
200	0xbdf7f979	-0.1210813
201	0xbe186c6c	-0.1488511
202	0xbea1d49e	-0.31607527
203	0xbd3fd1d7	-0.04683098
204	0xbe8eba75	-0.2787663
205	0xbdae2a4a	-0.0850416
206	0xbe67acb9	-0.22624482
207	0xbdf7ce90	-0.120999455
208	0xbd5ba64b	-0.053625386
209	0xbe7ce64b	-0.24697225
210	0xbeae6748	-0.34063172
211	0xbdf82e59	-0.12118215
212	0xbe838d5e	-0.25693792
213	0xbde59992	-0.11210932
214	0xbe831ee1	-0.25609496
215	0xbeb195a7	-0.34684488
216	0xbecae192	-0.39625221
217	0xbe37b0b8	-0.17938507
218	0xbc791b3c	-0.015204247
219	0xbc594b7e	-0.013262628
220	0xbe41b26c	-0.18915719
221	0xbe525b93	-0.20542745
222	0xbdc3ebd6	-0.095664665
223	0xbe70fee5	-0.23534735
224	0xbea7a6ec	-0.3274454
225	0xbde9c3f4	-0.11414328
226	0xbe5f4331	-0.21802975
227	0xbe9f6f7b	-0.3113974
228	0xbe656bc4	-0.2240439
229	0xbe8bff72	-0.27343327
230	0xbe282596	-0.16420588
231	0xbe3922b5	-0.18079646
232	0xbd26b1c4	-0.040696874
233	0xbe8a1b8a	-0.26974136
234	0xbe8ecb18	-0.27889323
235	0xbea9371e	-0.33049864
236	0xbea04c87	-0.31308386
237	0xbe8ad7cc	-0.27117765
238	0xbe892666	-0.26787108
239	0xbea5cc7a	-0.32382566
240	0xbe27dd38	-0.16392982
241	0xbcd7af8e	-0.026328828
242	0xbea43f61	-0.32079604
243	0xbe59166d	-0.21199961
244	0xbdafc8a7	-0.08583193
245	0xbe6629be	-0.22476861
246	0xbec37be4	-0.3818046
247	0xbda0341e	-0.078224406
248	0xbe8e9ad8	-0.2785251
249	0xbe119840	-0.14218235
250	0xbeb00949	-0.34382084
251	0xbe279e8a	-0.16369072
252	0xbe5087c1	-0.20364286
253	0xbe770567	-0.24123155
254	0xbd2beafb	-0.04197214
255	0xbe73d089	-0.23810019

lstm.bias_hh_l0 f4 [256]
0	0xbe10d9dc	-0.14145607
1	0xbe2249a7	-0.15848409
2	0xbe3c3317	-0.18378864
3	0x3d32f0ad	0.043686558
4	0xbe494269	-0.1965424
5	0x3e745c84	0.23863417
6	0xbe44a748	-0.19204438
7	0xbe42aa4e	-0.19010279
8	0xbe347899	-0.1762413
9	0xbe4fd1ba	-0.20294848
10	0xbe88a94d	-0.26691666
11	0x3d985af6	0.074392244
12	0xbe6ebcb5	-0.23314174
13	0x3d21ede0	0.039533496
14	0xbe6eb2eb	-0.2331044
15	0xbda583cb	-0.08081778
16	0xbe00a14d	-0.12561531
17	0xbe127273	-0.14301471
18	0xbe82ed56	-0.25571698
19	0xbddc66ce	-0.10761796
20	0xbce3b9b1	-0.027798505
21	0xbe0dd893	-0.13852148
22	0xbea0fa1f	-0.31440827
23	0xbdaa1e71	-0.083065875
24	0xbeafa215	-0.34303346
25	0xbd6a402e	-0.057190113
26	0xbcf6625a	-0.030076195
27	0xbcd27ff2	-0.025695775
28	0xbe423acb	-0.1896774
29	0xbe26a933	-0.16275482
30	0xbe137629	-0.14400543
31	0x3d7d111a	0.061783887
32	0xbe3886a4	-0.18020111
33	0xbe00114a	-0.12506595
34	0xbe469935	-0.19394381
35	0xbe40e0c6	-0.18835744
36	0xbdaae240	-0.08343935
37	0xbd61fb48	-0.05517128
38	0xbde2ba90	-0.1107074
39	0xbea881c1	-0.32911494
40	0xbd152c00	-0.036418915
41	0xbe78aaeb	-0.2428395
42	0xbe669699	-0.22518386
43	0xbe763ab4	-0.24045831
44	0xbdb132c4	-0.08652261
45	0xbe195300	-0.14973068
46	0xbd2660a7	-0.04061952
47	0xbecdcf87	-0.40197393
48	0xbe9c52f5	-0.3053204
49	0x3d50420e	0.050844245
50	0xbe612f7c	-0.2199077
51	0xbde67a19	-0.11253757
52	0x3d1c1f6e	0.03811591
53	0xbd8e72e8	-0.069555104
54	0xbdc5b51c	-0.096536845
55	0xbca27963	-0.019833272
56	0xbea7ddd0	-0.32786417
57	0x3db3274f	0.08747732
58	0xbe82b20d	-0.25526467
59	0xbe25c811	-0.161896
60	0xbeaebf22	-0.34130198
61	0xbe2dd681	-0.16976358
62	0xbe058447	-0.13038741
63	0x3daa1b20	0.08305955
64	0x3e0685e6	0.13137016
65	0xbe4d8674	-0.20070821
66	0xbe198d35	-0.14995272
67	0x3de76b22	0.11299731
68	0xbe291309	-0.16511168
69	0x3e9ef68d	0.31047478
70	0xbdee7f73	-0.11645403
71	0xbe99a430	-0.30008078
72	0xbde44fd3	-0.11148038
73	0xbde06305	-0.109563865
74	0xbd9a4631	-0.07532919
75	0xbb855f2f	-0.0040701847
76	0xbe41f993	-0.18942861
77	0x3d10a58b	0.035314124
78	0xbea20c85	-0.31650177
79	0xbd8f2894	-0.069901615
80	0xbdff1277	-0.12454694
81	0xbe9c8cc8	-0.30576158
82	0xbec187b8	-0.37798858
83	0x3e2858dc	0.16440147
84	0xbe884eb1	-0.26622537
85	0x3d8365c1	0.064158924
86	0xbdb603cf	-0.08887445
87	0xbe7290b1	-0.23688008
88	0xbdde695b	-0.10859939
89	0xbe4abf8c	-0.19799632
90	0x3dc10b6e	0.09426008
91	0xbdc3fdb6	-0.09569876
92	0xbdb66675	-0.08906261
93	0xbd96d600	-0.07365036
94	0xbe8c9a00	-0.27461243
95	0xbe3a6709	-0.18203367
96	0xbe365e99	-0.17809524
97	0xbd81a40a	-0.06330116
98	0xbe83c49d	-0.25735942
99	0xbe22b909	-0.15890898
100	0xbd07f1a2	-0.033189423
101	0xbd3b9246	-0.045793794
102	0xbe6c5dc1	-0.2308264
103	0xbee84ced	-0.4537119
104	0x3d588801	0.05286408
105	0xbd6529bd	-0.055948008
106	0xbda5557d	-0.08072946
107	0xbe262342	-0.16224387
108	0xbdb48dd3	-0.08816113
109	0xbd0d5c8c	-0.034512088
110	0x3d5676e1	0.052359466
111	0xbead02b0	-0.33791113
112	0xbe8dd4ad	-0.2770132
113	0xbe77e93e	-0.24210069
114	0x3d60d865	0.05489387
115	0xbd6978d7	-0.057000007
116	0x3d3896ea	0.045065798
117	0xbeaeec81	-0.34164813
118	0xbe4a0b1c	-0.197308
119	0x3d1082af	0.03528088
120	0xbe90947a	-0.2823828
121	0x3dabc118	0.08386439
122	0xbe021fb8	-0.12707412
123	0xbe980c09	-0.29696682
124	0xbe992a22	-0.29914957
125	0xbdd1b433	-0.102394484
126	0xbe52dc37	-0.20591818
127	0x3e2162a6	0.15760288
128	0x3e258779	0.1616496
129	0x3b94bab3	0.004538858
130	0xbddba61f	-0.107250445
131	0x3da8a401	0.08234406
132	0x3c9e87ec	0.019351922
133	0x3dabc2f5	0.083867945
134	0x3c0c799c	0.008573916
135	0x3dc91a98	0.098195255
136	0xbca4c84e	-0.020115044
137	0x3d012ee8	0.031538874
138	0x3d2c477b	0.042060357
139	0x3e7c60c7	0.24646293
140	0x3d9bee9f	0.07613873
141	0xbe3f487c	-0.18679994
142	0xbbfc2bed	-0.007695666
143	0xbe64921d	-0.22321363
144	0x3d96f79a	0.07371445
145	0x3e03347c	0.1281299
146	0xbd9adccb	-0.07561644
147	0xbdc0a600	-0.09406662
148	0xbd2d9457	-0.042377796
149	0x3de8d1ed	0.11368165
150	0x3dcc5038	0.09976238
151	0xbe10ffad	-0.14160033
152	0xbba9399e	-0.005164339
153	0xbbbe99c1	-0.0058166687
154	0xbe2f9aea	-0.17148939
155	0xbd16a121	-0.03677476
156	0x3d97650a	0.073923185
157	0x3c42ae6b	0.011882405
158	0xbd444fc9	-0.04792765
159	0xbd0dd8a3	-0.03463043
160	0xbd6529a5	-0.05594792
161	0x3e0c8b7f	0.13725089
162	0x3dd849f1	0.10560978
163	0x3d5c3ea4	0.053770676
164	0x3dcd69e7	0.10029965
165	0x3e03c4aa	0.1286799
166	0xbdd90721	-0.10597063
167	0x3de59de9	0.112117596
168	0xbd6c504d	-0.05769377
169	0xbddfcee6	-0.109281346
170	0xbe071f39	-0.13195504
171	0x3cd11f11	0.025527509
172	0x3d8f8a63	0.07008817
173	0x3baf3e7e	0.005348026
174	0x3d98df1b	0.07464429
175	0x3e02aa4c	0.12760276
176	0x3dd575db	0.1042287
177	0xbddf450c	-0.109018415
178	0x3d1eeffb	0.038803082
179	0x3df09814	0.117477566
180	0xbe19ed4f	-0.15031932
181	0x3e00ac76	0.12565789
182	0x3df0a8b7	0.1175093
183	0xbe228874	-0.15872365
184	0x3dbbb4eb	0.09165367
185	0xbd185e5b	-0.03719936
186	0x3e39694e	0.18106577
187	0x3e2c1fc6	0.16808996
188	0x3da0a773	0.078444384
189	0xbd943301	-0.07236291
190	0x3d9f8131	0.07788313
191	0x3e1e4c6c	0.1545884
192	0xbddc1479	-0.10746092
193	0xbe96c53f	-0.29447362
194	0xbe82ed36	-0.25571603
195	0x3d1d1475	0.038349587
196	0xbe46de23	-0.19420676
197	0xbc2a773b	-0.010404403
198	0xbdf447ac	-0.11927733
199	0xbe887cd2	-0.2665773
200	0xbe5c1738	-0.21493232
201	0xbe82e0a4	-0.25562012
202	0xbe085b5a	-0.13316098
203	0xbd3d6241	-0.04623628
204	0xbdb8849b	-0.090096675
205	0xbe50b4bb	-0.20381443
206	0xbe8386d2	-0.25688797
207	0xbe683a49	-0.22678484
208	0xbe883c8e	-0.266087
209	0xbe48934e	-0.19587442
210	0xbe2de94d	-0.16983528
211	0xbdcab046	-0.09896903
212	0xbe321935	-0.17392428
213	0xbd552fbe	-0.052047484
214	0xbef41acf	-0.47676703
215	0xbe570d60	-0.21001196
216	0xbeda8928	-0.42682767
217	0xbe72a61e	-0.23696181
218	0xbd003d9f	-0.031308766
219	0xbe61ffc9	-0.2207023
220	0xbea9b40f	-0.33145186
221	0xbe6831e3	-0.2267528
222	0xbe9f9490	-0.31168032
223	0xbe909b62	-0.28243548
224	0xbe79bd34	-0.24388582
225	0xbe5cb0b6	-0.21551785
226	0xbe3cbf01	-0.18432237
227	0xbe18abcc	-0.14909285
228	0xbe7ade68	-0.24498904
229	0xbe936096	-0.28784627
230	0xbdcdab58	-0.10042447
231	0xbec93f3b	-0.39306054
232	0xbdf06495	-0.117379345
233	0xbeb9a118	-0.36255717
234	0xbe982a96	-0.2971999
235	0xbe76eacb	-0.24113004
236	0xbe770cab	-0.24125926
237	0xbe69e2e1	-0.22840454
238	0xbe84eaa0	-0.25960255
239	0xbe698cbf	-0.22807597
240	0xbeb27cb3	-0.34860763
241	0xbe25587c	-0.16147035
242	0xbe571559	-0.21004237
243	0xbe41b589	-0.18916906
244	0xbc696296	-0.014244696
245	0xbe35e084	-0.17761427
246	0xbe475c24	-0.19468743
247	0xbd053499	-0.032520864
248	0xbef34c06	-0.4751894
249	0xbe1fef9c	-0.15618747
250	0xbeaea867	-0.34112856
251	0xbe668504	-0.22511679
252	0xbe1ae81d	-0.15127607
253	0xbe9c8cab	-0.3057607
254	0xbdcd3d1b	-0.100214206
255	0xbe5a81a5	-0.21338518

fc.weight f4 [24, 64]
0	0xbc8a7b7e	-0.016904589
1	0xbd9b3932	-0.075792685
2	0x3d9c341e	0.07627128
3	0x3cab4636	0.020907503
4	0xbc0db909	-0.008650073
5	0x3d026cd0	0.031842053
6	0xbc2daa9f	-0.010599761
7	0x3eaa4b3e	0.3326053
8	0xbd0c4947	-0.03424957
9	0xbe94f455	-0.2909266
10	0x3d5a709c	0.05333005
11	0x3cb9cba2	0.022680108
12	0xbb8e84fd	-0.0043493495
13	0x3d14e5df	0.036352035
14	0xbd2fa0ef	-0.042878088
15	0xbd318b11	-0.043345515
16	0x3de6b990	0.11265862
17	0x3ca3f2c5	0.020013222
18	0x3d94f349	0.072729655
19	0x3cd8d1d6	0.026467245
20	0xbbbaa086	-0.0056954054
21	0x3deeb958	0.11656445
22	0xbd3c387f	-0.045952316
23	0xbeb7d7dc	-0.35906875
24	0x3be0322b	0.006841918
25	0x3e1a36c1	0.1505995
26	0x3d5eaa35	0.05436154
27	0xbbda25d4	-0.0066573415
28	0x3e8863ed	0.26638737
29	0xbe074312	-0.13209179
30	0xbe6cfef4	-0.23144132
31	0x3e2b8b07	0.16752253
32	0xbd445962	-0.047936805
33	0xbd3aa7b9	-0.04557011
34	0x3e9807e5	0.29693523
35	0xbdc9fc41	-0.09862567
36	0xbd8954fc	-0.067056626
37	0x3e4eda07	0.20200358
38	0x3d9efd81	0.07763196
39	0x3dc0608f	0.09393417
40	0x3d957396	0.07297437
41	0x3c9e6dd4	0.01933948
42	0x3e199205	0.14997108
43	0x3ceb33aa	0.028711159
44	0x3c9f5611	0.01945022
45	0xbb53e338	-0.0032331478
46	0x3c36a28b	0.011147152
47	0xbd3cb186	-0.046067737
48	0xbb695408	-0.0035603065
49	0x3d9163fc	0.07099149
50	0x3c253b97	0.010085008
51	0x3e0c951a	0.13728753
52	0xbc391406	-0.011296278
53	0x3b76d224	0.0037661875
54	0x3d460aad	0.048350025
55	0xbdae424f	-0.08508741
56	0x3bc26064	0.005931901
57	0x3a8317fe	0.0010001657
58	0xbdcf35e1	-0.101176985
59	0xbd803a2e	-0.06261097
60	0xbd968729	-0.073499985
61	0xbca47e78	-0.020079836
62	0xbf12f26c	-0.57401156
63	0x3d1d9722	0.03847421
64	0xbd28556b	-0.041097086
65	0xbe790fec	-0.2432248
66	0x3ea8c910	0.329659
67	0x3c0817e8	0.008306481
68	0xbe3edced	-0.18638964
69	0x3c50a0e4	0.012733672
70	0x3d9be824	0.07612637
71	0x3dde6c74	0.108605295
72	0x3d5fce99	0.054640386
73	0xbedbe7ac	-0.4295019
74	0xbdc1d2b3	-0.09464016
75	0xbb2f5b94	-0.0026757466
76	0x3c7ac070	0.01530467
77	0x3cf76f00	0.030204296
78	0xbdac6c39	-0.08419079
79	0xbd05b1df	-0.032640334
80	0x3d609424	0.054828778
81	0xbe34515b	-0.1760916
82	0xbd86b66f	-0.06577765
83	0xbe0f92f5	-0.14020903
84	0xbd8a450a	-0.067514494
85	0x3de6a197	0.112612896
86	0xbc842294	-0.01612977
87	0xbe9b1645	-0.30290428
88	0x3be83783	0.0070866956
89	0xbc27919d	-0.010227588
90	0x3ce24312	0.027619872
91	0xbd4193cd	-0.047260094
92	0x3d41135a	0.047137596
93	0xbbb5c9e2	-0.005547748
94	0xbe8fee75	-0.28111616
95	0xbc8ea897	-0.017414374
96	0xbd787d94	-0.060666636
97	0xbd1e74e4	-0.038685694
98	0x3dafa2e4	0.08575991
99	0xbd98013a	-0.07422109
100	0x3c680431	0.014161156
101	0x3dc7b012	0.097503796
102	0x3d9b7050	0.07589781
103	0xbbc91862	-0.00613694
104	0x3c66eec8	0.014095016
105	0xbc5a7c50	-0.0133353025
106	0x3dbc1ca9	0.09185154
107	0x3cd4ab67	0.025960637
108	0x3cc38692	0.023867879
109	0x3da12dcb	0.078700624
110	0x3d4b2410	0.04959494
111	0x3db4d935	0.088304915
112	0x3a1e966c	0.0006049636
113	0xbdf58772	-0.11988725
114	0x3b592081	0.0033130946
115	0x3e23c9f4	0.15995008
116	0xbd30449b	-0.043034177
117	0x3da9c4c0	0.0828948
118	0xbd481350	-0.048846543
119	0xbc96c86b	-0.018406114
120	0x3bfc3f01	0.0076979403
121	0x3c91cb61	0.017797174
122	0x3e1d5bfe	0.15367123
123	0x3ac20e93	0.0014805369
124	0xbea35fae	-0.31908935
125	0xbbb81647	-0.00561789
126	0xbe76522e	-0.24054787
127	0xbd3d42d3	-0.046206307
128	0x3be79e0f	0.0070684026
129	0xbe0d0a76	-0.13773522
130	0x3dd89b47	0.10576492
131	0x3b32f6b1	0.0027307684
132	0xbe8790f5	-0.2647778
133	0x3b2ac2a5	0.0026055959
134	0x3ca9a0cb	0.020706555
135	0xbe3a1554	-0.18172199
136	0x3e4a387a	0.19748107
137	0xbf0101f5	-0.5039361
138	0xbdae51e7	-0.085117154
139	0x3c92c6bf	0.017917035
140	0x3c9fe9d9	0.019520687
141	0x3c905881	0.017620327
142	0xbb0a9343	-0.0021144904
143	0xbdb6f513	-0.08933463
144	0x3e9cf0c3	0.30652437
145	0xbe2c04d2	-0.16798714
146	0x3c94ac06	0.018148433
147	0xbe4fc73e	-0.20290849
148	0xbcbb3d72	-0.022856448
149	0x3e42b041	0.19012548
150	0xbe04d283	-0.12970929
151	0xbde0c75d	-0.109755255
152	0x3c83a7a8	0.016071156
153	0xbcd325ae	-0.025774803
154	0x3c6c622f	0.014427706
155	0xbbcd0633	-0.0062568425
156	0xbdeda51d	-0.116037585
157	0x3db6c416	0.08924119
158	0xbe94d095	-0.29065385
159	0x3d827f46	0.06371932
160	0x3bf4c24e	0.007469452
161	0xbaf6d17d	-0.0018830743
162	0xbdd0997f	-0.10185527
163	0xbd829830	-0.06376684
164	0x3dc6ef46	0.097136065
165	0xbd3744d0	-0.04474336
166	0xbcd6e424	-0.026231833
167	0x3b7a20b0	0.0038166456
168	0x3d9e981f	0.077438585
169	0xbdbf4041	-0.09338427
170	0x3d872d4f	0.06600439
171	0x3d481cd0	0.048855603
172	0x3dbf506d	0.09341512
173	0x3d0fefe7	0.035140898
174	0xbbb95192	-0.005655476
175	0x3d5d18d8	0.05397877
176	0xbc8e3128	-0.017357424
177	0xbc386d13	-0.011256474
178	0x3bc23c06	0.0059275655
179	0x3cee6bc9	0.02910413
180	0xbd9ecf57	-0.07754391
181	0xbdfb0e75	-0.12258617
182	0x3c685f6d	0.0141829075
183	0xbca0a4c5	-0.019609818
184	0xbc18e209	-0.009331235
185	0x3c442d2f	0.011973663
186	0xbc58e7d4	-0.013238866
187	0x3b50cee1	0.003186159
188	0xbc719377	-0.014744631
189	0xbdada14f	-0.08478033
190	0xbe1ef642	-0.15523627
191	0xbe08aacd	-0.13346405
192	0x3d998b51	0.074972756
193	0xbd2184f6	-0.039433442
194	0x3e6ea87b	0.23306458
195	0xbd0493cf	-0.032367524
196	0x3d2351c9	0.03987292
197	0xbd4823a7	-0.048862126
198	0xbd9a9048	-0.07547051
199	0xbdab05c1	-0.08350707
200	0xbc654e4a	-0.013995716
201	0xbe8149ed	-0.25251713
202	0xbd819334	-0.06326905
203	0x3c075745	0.008260553
204	0x3a5c27ca	0.0008398263
205	0xbcb5fc62	-0.022215072
206	0x3e17004f	0.14746211
207	0xbd0ba1ab	-0.034089725
208	0x3e6a330e	0.22871038
209	0x3e07ec25	0.13273676
210	0x3d065a47	0.03280094
211	0xbe68bc33	-0.22728042
212	0xbccf4ed1	-0.025306137
213	0x3d96ae85	0.07357506
214	0xbccd20a4	-0.025039978
215	0x3cf91c0f	0.030408887
216	0xba0e9027	-0.00054383505
217	0xbc8ee600	-0.017443657
218	0xbc9d5af6	-0.019208413
219	0x3cbd85b6	0.023135047
220	0xbc63b7a3	-0.013898763
221	0xbe00486f	-0.12527631
222	0xbe1cfed8	-0.1533159
223	0x3d113e98	0.035460085
224	0x3d2b51d8	0.0418261
225	0x3ceaffbf	0.028686402
226	0xbd342dac	-0.04398887
227	0x3d4b2a96	0.04960116
228	0x3d73db1b	0.059535127
229	0x3b0a7887	0.0021128969
230	0x3ca0c008	0.019622818
231	0xbd815938	-0.06315845
232	0xbc40e312	-0.011772888
233	0x3d8520f7	0.06500428
234	0xbc94ed18	-0.018179461
235	0xbc937d0a	-0.01800396
236	0x3d622683	0.05521251
237	0xbd80d134	-0.06289902
238	0x3d0c2356	0.034213386
239	0x3d462731	0.04837722
240	0xbc098811	-0.008394257
241	0x3c9c9ff1	0.019119235
242	0xbd03dd08	-0.032193214
243	0xbdfb3b4e	-0.12267171
244	0xbdcce798	-0.100051105
245	0xbea12163	-0.31470785
246	0xbb8610ad	-0.0040913434
247	0x3c088d8a	0.008334527
248	0xbd77154d	-0.06032305
249	0x3d070c1e	0.03297054
250	0xbdb035fb	-0.08604046
251	0xbd5fb7ce	-0.05461865
252	0xbe7a1563	-0.24422221
253	0x3e529715	0.20565446
254	0xbe46bb46	-0.19407377
255	0x3ce1afd1	0.027549656

fc.bias f4 [24]
0	0x3cc0090a	0.02344181
1	0x3cee8fdf	0.029121337
2	0x3ce664cb	0.028124234
3	0x3d223aab	0.03960673
4	0x3d44d079	0.048050378
5	0x3d0c6899	0.03427944
6	0x3d0b34be	0.033985846
7	0x3d18d83f	0.037315603
8	0x3d11ec52	0.035625763
9	0x3d1582e4	0.03650178
10	0x3d31ff3d	0.043456305
11	0x3d54ea3a	0.05198119
12	0x3d535355	0.051593143
13	0x3d619938	0.05507776
14	0x3d5d3206	0.054002784
15	0x3d4209e2	0.047372706
16	0x3d64c6ae	0.05585354
17	0x3d4a7e06	0.04943659
18	0x3d368177	0.04455706
19	0x3d4a5eb8	0.049406737
20	0x3cc87f0b	0.024474641
21	0x3c933afe	0.017972466
22	0x3cea6c0d	0.028615976
23	0x3cbe308d	0.02321651
